pic_server_python/checkpoints/1/130_PosEmbed.pt (torch, 4839 bytes, 2 tensors)

weight f4 [256, 2]
000000 66 b8 2d be bb 7c 84 bc eb 34 90 3e ff d5 1e 3f
       -0.16964874 -0.016172757 0.28165373 0.6204528
000010 cf 1a 92 3e 05 bb 24 bf 86 00 2c bf d7 95 1a bf
       0.28536078 -0.6434787 -0.671883 -0.6038489
000020 ea eb 30 bf 0b 80 e5 3d 81 09 fa 3e 45 08 25 3f
       -0.69109976 0.11206063 0.48835376 0.64465743
000030 78 83 19 3f 24 df 23 3f 8d 0f 1c bf 55 2f 1d bf
       0.5996623 0.6401236 -0.6096123 -0.6140035
000040 d6 22 ee be 2f 82 30 bf ce cb 1d 3f c5 70 a7 3d
       -0.46510953 -0.68948644 0.61639106 0.08175806
000050 71 33 f4 3e 70 b2 5e 3e cf 3d 28 3e e2 fd 83 3e
       0.47695497 0.21747756 0.16429828 0.25779635
000060 6b be 06 3f 4e 5c 38 be 5d 4f ce 3e 2f 1e a0 3d
       0.52634305 -0.18003961 0.40294924 0.07818257
000070 01 ce 60 3c 13 7b 0a bf 6d 50 02 bf 88 54 0b 3f
       0.01372099 -0.54094046 -0.5090397 0.5442586
000080 3e 3d 11 3e 02 03 da be 64 25 9b bd ef 73 e7 be
       0.14183518 -0.4258042 -0.07575491 -0.45205638
000090 c9 2f 8d be f1 7b 32 bf 3a c8 f3 be c0 8e 52 3e
       -0.2757552 -0.6972037 -0.47613698 0.20562267
0000a0 c1 52 91 be 8f 48 69 3e d6 04 16 3f 0e ae 4b bb
       -0.2838345 0.22781585 0.5860113 -0.0031079086
0000b0 4a 2f d0 be c1 66 93 bd 21 a8 b2 be 3a 94 25 3f
       -0.4066108 -0.07197333 -0.34893897 0.646793
0000c0 46 70 0e bf bf ec 02 bf 45 47 0b bf 73 12 2a bf
       -0.55640066 -0.51142496 -0.54405624 -0.664344
0000d0 a0 c6 a3 be 13 ba 94 3d 7c ff f2 be 2d e7 d1 be
       -0.31987476 0.07262053 -0.47460544 -0.40996686
0000e0 da 23 26 3f d8 8a bc bd 69 d8 19 3e 7f 6c 34 bf
       0.64898455 -0.0920617 0.1502396 -0.7047805
0000f0 97 85 2a bc dc cb 12 bf 4a 46 31 be 1f 02 80 be
       -0.010407827 -0.57342315 -0.1731197 -0.25001618
000100 60 c7 8c bd 66 95 d2 3e 25 77 00 3f 26 44 fc 3d
       -0.06873965 0.41129607 0.501818 0.12317686
000110 de e3 e7 3e d3 db 1d 3f 7a 16 c5 be 84 80 9e be
       0.45291036 0.6166355 -0.3849371 -0.30957425
000120 57 4d 1f 3f fe a5 c8 3e d4 58 29 bf 74 55 07 bf
       0.62227386 0.39189142 -0.66151166 -0.52864766
000130 eb c2 f4 3e 1a 43 d8 3c d7 f7 ff be ae 88 44 3e
       0.4780496 0.026399184 -0.49993774 0.19192764
000140 da 2e 62 bc fe 5a 2d be bb e7 17 bf 1a 2a 3c 3e
       -0.013805116 -0.16929242 -0.5933797 0.18375435
000150 00 a6 96 3d 13 db f3 3e d5 dd e1 be 11 b1 d4 be
       0.07355881 0.47628078 -0.44114557 -0.4154134
000160 53 b3 25 3f 2e f9 04 3c 96 01 2a 3f fa d2 dc be
       0.6472675 0.00811605 0.6640867 -0.43129712
000170 fd 0a 00 bf f7 76 10 be 83 33 97 bd 76 6b e3 3e
       -0.50016767 -0.14107881 -0.07382872 0.44417924
000180 5c c5 ee 3e 21 8e 35 3d 3e a3 21 bf 7e 4c 15 3f
       0.46634948 0.044324998 -0.6313971 0.5831984
000190 75 e9 8d 3e de 1e c2 be 99 97 12 3f a4 50 1c 3f
       0.27717176 -0.37914175 0.5726257 0.6106055
0001a0 55 06 76 be 42 0d 28 3e ae b1 15 3f 03 e3 08 3f
       -0.24025853 0.16411307 0.5847424 0.5347139
0001b0 84 48 71 3e 11 c9 da 3e cf b3 0c 3f 64 85 28 3f
       0.23562819 0.42731526 0.54961866 0.6582854
0001c0 a7 30 c9 3e 6d f3 0a 3f 03 7a 2a 3f fa c0 78 3c
       0.3929493 0.5427769 0.66592425 0.015182728
0001d0 b6 3e 25 3f 8e 77 ad 3e e2 bf 1d be 33 98 e4 3e
       0.64548814 0.33880275 -0.15405229 0.4464737
0001e0 9a 60 fe bd c8 f8 8d be 2b 53 14 3e 0c 7b a6 3e
       -0.12420769 -0.27728868 0.14484851 0.32515752
0001f0 cf 5a aa be 89 46 12 3f 97 d5 93 3e 1f 4d c1 3e
       -0.33272406 0.5713888 0.28873894 0.3775415
000200 b7 6d 88 3e 1a 45 1f bd 56 37 0e 3d 4d 23 26 3e
       0.26646206 -0.03888426 0.03472074 0.16224404
000210 dc c7 26 be 54 40 cb be e4 37 14 3f 03 1a 30 3f
       -0.16287178 -0.39697516 0.5789778 0.6878969
000220 fe f4 82 bd 01 26 1b 3f 60 3a 08 be c5 f2 b3 3c
       -0.06394385 0.60604864 -0.13303518 0.021966347
000230 0e 74 91 be fd a6 f8 bc 6d 3a 0c bf 62 28 e5 be
       -0.28408855 -0.030353064 -0.5477665 -0.44757372
000240 42 0e cd be e7 30 82 be 44 49 b0 be 63 32 da be
       -0.4004994 -0.25427935 -0.34430897 -0.42616567
000250 40 e3 45 3d ba 97 66 be b3 98 16 bd ad ed 1e 3f
       0.048312426 -0.22518817 -0.03676672 0.62081414
000260 dc 74 ad be 16 62 9c 3c cb 28 84 3e 84 27 b8 3d
       -0.3387822 0.01908974 0.25812373 0.08991912
000270 50 35 03 bf fe e9 22 bf b8 b0 1c bf 6c c6 ca be
       -0.51253223 -0.63638294 -0.6120715 -0.3960451
000280 ff d7 b3 3e 22 7b e2 be f3 a1 f6 3e 62 d2 2e 3f
       0.3512573 -0.44234568 0.48170432 0.6828977
000290 56 92 d7 3e c2 a8 2b 3f db 61 7f 3d 20 9c 22 3f
       0.42103833 0.6705438 0.06234918 0.6351948
0002a0 c5 ca f7 be 32 2c a0 bd 5c bf 09 bf 6e 4e 1a be
       -0.48396888 -0.078209296 -0.53807616 -0.15068981
0002b0 44 93 65 bd 2e 8b fa 3c f7 99 04 3f df cb d4 3e
       -0.056048647 0.030583944 0.5179743 0.4156179
0002c0 27 83 c9 3c 2a 25 ee be e5 b7 e7 bd 68 c7 a8 3c
       0.024598671 -0.4651273 -0.11314372 0.020602897
0002d0 4d 2d 30 3f 99 77 ea 3d 0d ec 09 3f 44 20 a3 3d
       0.68819124 0.11448593 0.5387581 0.079651386
0002e0 0b d3 36 3d 1d 54 33 3f 85 6d 2b 3f 57 44 88 be
       0.04463486 0.7005022 0.6696399 -0.2661464
0002f0 73 ed 22 bf 41 66 5d be 0c f4 ff 3e 2d c0 1a bf
       -0.6364357 -0.21621038 0.4999088 -0.60449487
000300 d3 73 54 3e 3c ba ce be 9b e5 00 3f 63 49 b9 3e
       0.20747308 -0.4037646 0.5035035 0.36188802
000310 7b 8b da be f2 95 e4 3d 54 63 6b be d9 01 0a 3f
       -0.4268454 0.11161412 -0.2298711 0.5390907
000320 9f 14 0e bf 3a 85 1c 3f 00 2d 9e 3c 6d 16 a7 be
       -0.55500215 0.6114079 0.019308567 -0.32634297
000330 e8 e2 ac be 17 b1 06 bd d8 10 00 3f 68 b5 f8 be
       -0.33766866 -0.03288373 0.500257 -0.48575902
000340 63 69 0e 3e 8d ef e0 bd ef 9c 74 bd f2 f8 8d be
       0.1390739 -0.10983191 -0.059719976 -0.27728993
000350 5a 38 04 3f ae 26 1d 3f 20 b7 49 3d b2 e9 c2 3e
       0.51648486 0.61387146 0.049246907 0.3806892
000360 f0 e4 65 3d f5 26 14 3f b4 3b 13 bf 3c cf c4 3e
       0.056126535 0.57871944 -0.57512975 0.38439357
000370 d4 da f4 be 30 5f b2 bd a0 47 15 bf bf e9 05 3f
       -0.47823203 -0.08709562 -0.58312416 0.52309793
000380 f6 30 cd 3e 82 b5 d6 be 14 f6 e2 3c 2a 5a 62 be
       0.40076417 -0.41935354 0.02770523 -0.22104707
000390 cc 83 af 3e 6d 28 a4 3e d4 e7 6e be 52 5a 16 3e
       0.3428024 0.32062092 -0.23330623 0.14682892
0003a0 13 00 94 3e ea 5e 62 3e af 02 c0 3e 83 90 e6 3e
       0.28906307 0.2210652 0.37502047 0.4503213
0003b0 c7 0c 11 bf 31 e6 20 3f c1 d9 2d 3f 80 f6 05 bd
       -0.5666012 0.62851244 0.6791039 -0.032705784
0003c0 47 7c 0a be ac 41 0b be e7 ea 33 bf 71 24 20 3f
       -0.1352397 -0.1359927 -0.7028031 0.62555605
0003d0 b7 37 e6 3e 74 56 89 3e 85 83 18 be d8 ed ac be
       0.44964382 0.2682377 -0.1489392 -0.3377521
0003e0 d8 69 2b 3f a2 58 00 bf 8b 6c 41 be 9c d4 1b 3f
       0.6695838 -0.5013524 -0.18889062 0.6087129
0003f0 ec 47 e8 3e cc a5 2d 3f 8a 1c f6 3e 48 15 11 bf
       0.45367372 0.6783111 0.4806865 -0.566731

bias f4 [256]
000000 97 68 19 bf 8e b3 8e 3e 6d ec b1 be 0f 19 b7 3e
       -0.59925216 0.27871364 -0.3475069 0.35761306
000010 3c 19 12 bf bd 64 15 bf 7b b2 02 3f 81 1b 31 3f
       -0.57069755 -0.5835684 0.5105359 0.6918259
000020 ee e2 02 bf c9 99 c6 be ed c1 df bd 83 52 93 be
       -0.5112752 -0.38789204 -0.1092566 -0.2877389
000030 cd 19 09 3f 48 9e a8 3e c6 9c 11 bf da fe dc 3e
       0.53554994 0.3293326 -0.5687984 0.43163186
000040 e1 56 fe bd 49 13 07 bf d8 1a 24 bf 78 4b af bd
       -0.124189146 -0.527638 -0.6410346 -0.085593164
000050 a3 f4 20 be ed d0 9e be b8 22 f3 bc ea 7c db 3e
       -0.15718322 -0.31018773 -0.029679641 0.4286874
000060 1f 27 2f 3e 24 8b bc 3e dc 76 0d 3f a1 9a b2 bd
       0.17104767 0.36824906 0.5525949 -0.087208994
000070 f7 21 86 3e d4 ed c6 bc 57 4f 4c 3e 3e 15 25 bf
       0.26197788 -0.024283327 0.19952141 -0.6448554
000080 98 e5 33 3f 5c 6e 8e be 0f d3 09 3f 6d fc b9 be
       0.7027221 -0.27818573 0.53837675 -0.36325398
000090 31 b4 c8 3e 1e 53 85 bd 45 11 b9 be 62 80 c0 3e
       0.39199975 -0.06509994 -0.36145988 0.37597948
0000a0 65 0c 08 bf 7c 80 69 be 83 16 60 bd 7f 60 a9 3b
       -0.5314391 -0.22802919 -0.05470897 0.005168974
0000b0 db d8 27 3f 3c de 56 3e de 12 57 3d dc fd b1 3e
       0.6556527 0.20983213 0.052508228 0.34763992
0000c0 bc 2d 9f be e3 5d 87 b9 6d 8f 04 be 13 1f 0a bf
       -0.3108958 -0.00025819158 -0.12945338 -0.53953665
0000d0 a0 d0 0f 3f 04 dc b8 be 37 ee 92 be fe b7 bf 3e
       0.5617771 -0.3610536 -0.28697369 0.37445062
0000e0 1c 4c 05 be d9 44 8e 3e a8 89 15 3e cc c3 e4 be
       -0.13017315 0.27786902 0.14603293 -0.4468063
0000f0 33 e4 26 3f 15 11 41 3d f1 52 37 bd 11 af 2b 3f
       0.65191954 0.04713543 -0.044756833 0.67064005
000100 1a 91 65 3e eb 1b 18 bf 47 9b 2a 3f bb f1 a2 3e
       0.22418633 -0.594176 0.66643184 0.3182505
000110 e1 4c 1b bf 97 60 c1 be 56 a2 11 be b4 f4 13 3e
       -0.6066418 -0.37769005 -0.14222082 0.14448816
000120 d4 79 2c bf 65 6d 09 bf 46 5b 72 be 5e 5b 2b bf
       -0.67373395 -0.5368255 -0.2366763 -0.6693629
000130 1a 63 11 bf bb 31 16 3f 06 bc 23 bf 97 48 a0 be
       -0.5679184 0.5866963 -0.63958776 -0.31305382
000140 3c 04 9d 3e 89 ec ab 3e 98 88 00 be d9 bc 5a bd
       0.30667293 0.335789 -0.12552106 -0.053402755
000150 ab 94 8b be 2f f6 c8 3e 82 50 77 be 94 b1 b8 3d
       -0.27261862 0.39250323 -0.24151805 0.09018245
000160 b5 f3 8f 3d 3f 9d 86 bd 56 7c d5 be 8a f3 01 3e
       0.07028905 -0.06572961 -0.41696423 0.12690559
000170 fe 72 89 3e 44 46 4f 3d 62 0f 9b bd 05 00 a0 3e
       0.26845545 0.05060412 -0.075712934 0.31250015
000180 aa e5 ec be 56 d2 1c bf 41 bd 01 bf a6 b3 31 bf
       -0.4626897 -0.6125845 -0.50679404 -0.69414747
000190 cb 0c 8f bd 9b f2 eb be 88 e7 b5 3d 62 eb ed 3e
       -0.06984862 -0.4608353 0.08882052 0.46468645
0001a0 02 b5 26 bf 1d a1 30 3f 93 b3 eb be 1e 1f 34 be
       -0.65119946 0.6899584 -0.46035442 -0.17589995
0001b0 22 4d 33 bf 4d 7e ae 3e 65 2f 96 3e 68 d5 d4 3e
       -0.7003957 0.34080735 0.29333034 0.41569066
0001c0 6b 1a 95 3d d4 03 1f bf 3c a5 a8 3e 35 a5 55 bd
       0.072804295 -0.62115216 0.32938564 -0.052159507
0001d0 59 b1 10 bf dd ac ca 3e 09 39 95 3e 33 a8 2e 3f
       -0.5652061 0.3958501 0.29145077 0.682254
0001e0 99 d0 ac be 9f 40 8d 3e 3b e2 bb 3e c2 aa aa bd
       -0.33752897 0.27588364 0.36696038 -0.08333351
0001f0 44 34 0f bf f2 6b 0f bf 42 98 44 be 86 cb f2 3e
       -0.55939126 -0.56024086 -0.19198707 0.474209
000200 cb 64 1c 3f a6 60 83 3d 98 b8 29 3f 57 0d 8a 3e
       0.610913 0.064149186 0.6629729 0.26963302
000210 bf 23 cb 3e cf 63 92 be 41 8c b2 3e c2 eb 1d 3f
       0.3967571 -0.28591773 0.3487263 0.6168786
000220 81 5b 1f 3f 32 95 57 3e 4a 14 99 3e 48 85 00 be
       0.62249 0.21053007 0.29898292 -0.12550843
000230 af 8d ff be e6 40 b9 3e 8e 50 26 3e 29 72 01 3e
       -0.49912784 0.36182326 0.16241667 0.12641205
000240 42 f0 be 3e eb e6 e7 3c f1 41 2f 3f 09 de ef 3d
       0.37292677 0.028308352 0.68459994 0.11712272
000250 e4 cd 8f be 88 92 0a 3f 55 0e 2f 3f ad c1 01 3f
       -0.2808677 0.5412984 0.68381244 0.5068615
000260 b7 77 c1 3e 9a 7a a7 be c8 2e bd be d9 a3 19 bf
       0.37786648 -0.32710725 -0.36949754 -0.60015637
000270 3b 77 1d 3f e9 f6 9c be 1e dc 9a 3c 5c 93 23 bf
       0.61510056 -0.30657127 0.018903788 -0.6389673
000280 37 38 f4 3d ae 10 30 3f 78 1d 25 3f d2 ce 47 be
       0.11924785 0.6877545 0.6449809 -0.1951249
000290 29 13 e3 3e 01 f6 5b 3d b7 54 20 bf a3 65 0c bf
       0.44350556 0.053701404 -0.62629265 -0.54842585
0002a0 31 23 58 bd 50 de ae 3d 1a e5 ca 3d 7f c9 32 be
       -0.052767936 0.085384965 0.09906979 -0.17459677
0002b0 0c ad 34 3e 93 84 5c bb aa 95 db be 5f f2 df 3e
       0.17644137 -0.0033648356 -0.42887622 0.43739602
0002c0 37 f5 41 be bb 65 21 3e 42 e3 14 bf 77 ba 1e 3f
       -0.18941198 0.15761463 -0.5815927 0.6200327
0002d0 4a 7c 1f bf de 7f 11 3e 25 8a c7 3d 24 fb bc be
       -0.62299025 0.14208934 0.09743146 -0.36910355
0002e0 2b 1c 94 3d 5c 26 24 bf c7 60 88 3d 6d 79 bd be
       0.07231935 -0.6412103 0.06659084 -0.37006703
0002f0 1f a6 10 3d 0b d0 ad 3e 0f 1f 2c 3f c6 27 19 3f
       0.035314675 0.33947787 0.6723489 0.59826314
000300 ef 63 d0 3d 78 9b da be 0c b6 14 3f 09 a7 82 bd
       0.10175311 -0.42696738 0.5809028 -0.06379516
000310 db 1d 2c bf 5f bd ff 3e da 1b 2a bf 05 b4 c5 3e
       -0.67233056 0.49949166 -0.6644875 0.38613907
000320 12 08 eb 3d 97 ac 50 bd 92 42 15 bf 6f f1 a0 be
       0.11476149 -0.050945845 -0.58304703 -0.314342
000330 91 77 24 3e 5b 55 e4 be a8 21 6f 3e 5c fb c5 be
       0.16061236 -0.4459637 0.23352683 -0.38668334
000340 1c 8d 98 3d 68 ad af bb 4d ce ef bb a8 2e ee bd
       0.074487895 -0.005361248 -0.007318294 -0.11629993
000350 1a b1 c7 be 3f 20 b6 be 14 3c 25 3f d2 86 de bd
       -0.39002305 -0.35571477 0.64544797 -0.10865559
000360 4a a2 ea bd e1 3e 00 3d 96 d1 02 bf 6d 4f 8b be
       -0.114567354 0.031309966 -0.5110105 -0.27209035
000370 ac 36 7c be 55 1d c4 3e b0 0b 03 be b7 1e 70 be
       -0.2463023 0.3830363 -0.12797427 -0.23449217
000380 2e dc 18 3f 3e db 2b 3f e5 7c 16 bf aa 57 f5 3e
       0.5971097 0.6713141 -0.58784324 0.47918445
000390 59 5e ed be 53 6b 46 3e 0e cd a1 3e 69 18 b0 be
       -0.46361044 0.19376878 0.31601757 -0.34393623
0003a0 58 bf f9 be df b7 fe be 7a 81 76 be 9d ee 94 3e
       -0.48778796 -0.49749658 -0.24072829 0.29088297
0003b0 da 57 04 bf ce 8f 7d 3e 25 65 d1 3e 2e da b4 be
       -0.5169655 0.24761888 0.4089748 -0.35322708
0003c0 26 99 2e 3f f5 45 fb be fb f3 23 bf 34 d2 32 bf
       0.68202436 -0.4907681 -0.6404416 -0.69851995
0003d0 9e 4a 34 bf 5e 19 ca bd 34 54 12 3f 6e 95 48 be
       -0.70426357 -0.0986812 0.57159734 -0.19588253
0003e0 a8 40 d2 be 5e 70 15 bf e4 24 b5 be f7 a2 08 3f
       -0.41064954 -0.58374584 -0.35379708 0.53373665
0003f0 1f 87 53 3e a9 00 ad be b3 1d 17 3f 5c 8e 20 3f
       0.20657013 -0.33789566 0.5902969 0.62717223
