pic_server_python/checkpoints/1/130_TypeEmbed.pt (torch, 48555 bytes, 1 tensors)

weight f4 [23, 512]
00000000: 19e0 823f a44b 88bf d894 6c3f 88b8 1840
00000010: 0257 b73f ae6b a93e 9dff 463e 3847 c73e
00000020: 07ee e039 623d 23bf 0227 a7bf 23c3 2cbf
00000030: 73cb 39bf 91ec 99bd d066 c53d 19fd 173e
00000040: fca3 013f 7961 aebd 9d2f 043f 03dd a2bf
00000050: 2a60 00c0 5ce2 8a3f 7a97 7e3f 255a 993f
00000060: 3b18 e0be 307e e83d 4101 16c0 57c7 f8be
00000070: c9cf 3dbd 430d 833f 214b 8f3f d350 82bf
00000080: 5583 e4be ac64 b5be 6b9b 723f 2914 28bf
00000090: 8e1f 773e 9e99 a7bd a3cb b2bc 720c b73f
000000a0: 355e a63f c707 1dbf 82f1 1dbf b8fe af3d
000000b0: f2bf 5e3f 8d72 283d 42f2 173f c0d5 c2be
000000c0: 348c ef3e c567 0ebf 7f1b e8be 60a8 933e
000000d0: 9b53 55bf f1cb 8a3f f3e1 e3be 9f25 a2be
000000e0: 64e5 babd 5aab 0e3e 524a a2be 3352 bb3c
000000f0: 64a5 6a3d c438 3d3f ae02 dc3e c551 243f
00000100: c742 863f 0636 993e d58b ff3f 3009 783f
00000110: 3bfe 8d3f 43b8 17c0 272e e83e c5e8 09bf
00000120: 3191 f1be 75d8 e6bf b2ae d63e 33f9 7d3f
00000130: 9e69 dabf e0c0 7dbe d293 143f 609c 1cbf
00000140: 8c50 8f3f 7a37 81bf 6e01 c73e 7f01 043f
00000150: 7bb7 573f ddb1 cabf 3a7b 1dbf 831c a73e
00000160: 1751 96be 1f45 00bd 3586 01be 02fd b73f
00000170: 9328 833f fb0f 993f 1e0e 593e b42d 23bf
00000180: 682d 75bf 300b 72bf 20f1 873e 4b05 d73f
00000190: 0ff4 50bf 397e 7a3e 2955 d93f 99f9 1240
000001a0: 5f39 df3f f980 55bf 214f 52be f436 cebf
000001b0: d8c4 b2bf ddc4 3fbf 1744 c4bf 0bd8 0bbf
000001c0: 29fc c9bf e689 3bbf ae08 0dc0 7de7 18be
000001d0: 1c40 4bbe 6cb9 b23f 1cbb 96be 5bb8 3f3e
000001e0: 08c7 6e3f 1a0f 0140 4b19 ddbf 377d 9abf
000001f0: a500 2340 8a5a 73bf ad93 78bf 27c0 f5bf
00000200: 956a c3bf 03ee 873f 5b81 8fbf c8fa b1bf
00000210: 7bfb c0be 7c13 38bf b686 dc3f ccd5 a03f
00000220: 332d 013f 6eae febe 7d21 503f 4474 f7bd
00000230: 54aa 803f 889c 0e3e bfa6 b63f 8c21 2f40
00000240: d21c 81bd 5e29 67bf 5bba 9cbe a2c0 2abf
00000250: 391b 663f c2ee 6b3f fbbd 8b3f 65dc 013f
00000260: b449 3b3f 81a3 3cbc 855c 3fbf 7077 67be
00000270: 6f0c 803f 65d9 9d3e 2f94 ff3e a4e1 1940
00000280: 4a2d 883f dab9 1fbf e8a2 c03f 4fe8 14c0
00000290: acb9 e3bf f8b9 2fc0 f92c 563f 251a 3e3f
000002a0: 1e23 c23f 55a5 733e 0617 ae3f 4fb6 ee3f
000002b0: 1ef6 ee3e 308f dabe 631f 7abf 1ecc 1ac0
000002c0: 26e2 9abf af80 3e3f 2545 943f 8c11 f9be
000002d0: 97b8 3940 62b4 4bbf 249d ac3f e146 943f
000002e0: 4969 8ebe 75ff 43bd 3a25 3cbe 7e05 963f
000002f0: d99d 6f3f 8c5c 8f3f 5fb8 dbbf 81d7 273f
00000300: 174c 9e3f aa42 273f 42d3 02c0 6eef 9fbe
00000310: ed39 18bd 906e b0bf 85e9 0f3f d296 983f
00000320: 5528 6c3f cb90 a1be e575 54be 6a35 dc3f
00000330: dab4 2a3f 9d9f a33e d212 31bf 6a3e eb3f
00000340: 6eba b1bf bb9a 6c3f bff2 773f b3f0 dd3d
00000350: 0454 893f f86b 10c0 c961 873f 058b 993f
00000360: 29f8 aebe 5d61 15bf f263 363f 6a1c 59bf
00000370: d295 e33f a993 723f 8080 4b3f 6819 a4bf
00000380: 591f 18bf fcbb c8be 3bb0 be3d 356f d13e
00000390: dd1e ae3f b55a c73f 33fa 743f 3c35 babf
000003a0: 5890 dcbf b27b 23bf 0623 9fbf 5785 55bf
000003b0: 0c59 7d3f d27b 17bf fea7 a4bd d52a 673e
000003c0: 21e0 8e3f 0fae 153f a5b9 42bd c25a 0d40
000003d0: ad3e 5f3f cdf8 c63f 667a 083f 3aff 2d3f
000003e0: 52fd 2dbe 649c 503f aeb5 35bc 46d9 8fbf
000003f0: 21c4 e4bf a017 2ebe 2bd2 6abf 5ec9 f53e
1.0224639 -1.0648084 0.9241462 2.386263 1.4323428 0.33089966 0.19433446 0.38921523
0.00042901954 -0.6376554 -1.3058779 -0.67485255 -0.72576064 -0.075158246 0.096387506 0.14842643
0.50640845 -0.08514685 0.5163515 -1.2723697 -2.0058694 1.0850329 0.99449885 1.1980635
-0.43768486 0.11352193 -2.3438265 -0.48589584 -0.046340737 1.0238422 1.1194803 -1.0180916
-0.44631448 -0.3542837 0.947684 -0.6565576 0.24133131 -0.08183597 -0.021825617 1.4300673
1.29975 -0.6133999 -0.61696637 0.085935056 0.87011635 0.04112487 0.5935403 -0.38053703
0.46786654 -0.5562709 -0.45333478 0.28839397 -0.83330697 1.0843488 -0.44508323 -0.31669328
-0.09125784 0.13932553 -0.31697327 0.022866344 0.057286635 0.7391474 0.42970794 0.6418727
1.0489129 0.2992403 1.9964548 0.9688902 1.109321 -2.3706214 0.4534771 -0.53870803
-0.47181085 -1.8034807 0.41930157 0.9920837 -1.7063482 -0.24780607 0.58038056 -0.6117611
1.1196456 -1.0095055 0.38868278 0.5156478 0.84264344 -1.583553 -0.61516154 0.3263894
-0.29358742 -0.03131592 -0.12648852 1.4374087 1.0246757 1.1958002 0.21196792 -0.6374161
-0.9577241 -0.9454832 0.2655115 1.679849 -0.81622404 0.24462213 1.6979114 2.2964842
1.7439383 -0.8339992 -0.20537998 -1.611052 -1.3966322 -0.74909765 -1.5333279 -0.5462653
-1.5780078 -0.7325729 -2.2036548 -0.14932056 -0.19848675 1.3962836 -0.29439628 0.1872267
0.9327245 2.0165467 -1.7273344 -1.2069463 2.5469143 -0.95060027 -0.97100335 -1.9199265
-1.5266901 1.061951 -1.1211351 -1.3904657 -0.37691864 -0.7190473 1.722861 1.2565246
0.50459594 -0.49742454 0.813011 -0.12082723 1.005198 0.139269 1.4269637 2.7364225
-0.06304325 -0.90297496 -0.30610928 -0.66700184 0.8988529 0.9216119 1.0917352 0.5072692
0.7315934 -0.011513592 -0.7475055 -0.22604156 1.0003794 0.3082992 0.49917743 2.404397
1.0638821 -0.6239296 1.5049715 -2.326679 -1.7791038 -2.7457256 0.8366237 0.74258643
1.5166967 0.23793538 1.3600776 1.8649386 0.46672148 -0.42687368 -0.9770414 -2.4187083
-1.2100265 0.74415106 1.1583601 -0.486462 2.9018915 -0.7957212 1.3485456 1.158413
-0.278147 -0.047851045 -0.18373576 1.1720426 0.9360023 1.1200118 -1.716564 0.6556321
1.2366971 0.65336096 -2.0441442 -0.31237358 -0.037164617 -1.3783741 0.562157 1.1921027
0.9224904 -0.3155578 -0.20748098 1.7203801 0.6668221 0.31957713 -0.6916934 1.8378422
-1.3885019 0.924236 0.96854776 0.10836925 1.0728765 -2.25659 1.0576717 1.199555
-0.34173706 -0.5835169 0.71246254 -0.8480898 1.7780097 0.9475656 0.7949295 -1.2820253
-0.5942283 -0.3920592 0.09310957 0.40905157 1.3603169 1.5574557 0.95694274 -1.4547496
-1.723155 -0.6386062 -1.2432563 -0.83406585 0.98964 -0.5917331 -0.080398545 0.22574933
1.1162149 0.5846872 -0.047540326 2.2086644 0.8720501 1.5544678 0.53311765 0.6796757
-0.16991165 0.81488633 -0.011090679 -1.1238182 -1.7872354 -0.170012 -0.9172694 0.48005193
