pic_server_python/checkpoints/1/29_TypeEmbed.pt (torch, 48555 bytes, 1 tensors)

weight f4 [23, 512]
00000000: 4f69 a93f c25d abbf 6032 a53f b32a 4740
00000010: 979e d73f 9fa9 1b3f 4c44 013e 4178 213f
00000020: f5e9 9fbe c0cb 7abf 2b49 babf ec2d 35bf
00000030: a9c2 51bf bd9d bebd 6754 4b3d 0920 5d3e
00000040: 5233 133f 5f88 c8bd 939b 183f 7b5f f3bf
00000050: 95e4 23c0 e23b a13f 1c72 b53f d14d c53f
00000060: 8ea6 f1be c7fd 233e 432c 37c0 dbc8 85bf
00000070: efab b3bc 03e4 943f 1bdb a13f eae3 91bf
00000080: 9f9d 15bf 7605 bfbe 8b81 813f 3c92 38bf
00000090: 2503 bb3e 2cd9 08bd 4081 0a3d 7269 e33f
000000a0: 212f d83f dd00 51bf 9a78 2cbf 4b3b ce3b
000000b0: e7c7 973f 6481 f53d 62d9 373f 1c24 9bbe
000000c0: 7776 113f 96bd 58bf f973 18bf 1bda 9e3e
000000d0: 3369 60bf aeb7 bd3f 0237 cbbe 54b4 dfbe
000000e0: f56e f2bc e3a1 11bd 8c31 a2be c0ef 403d
000000f0: dc02 063d 1847 6c3f a413 333f 57f0 543f
00000100: 3350 a33f 1879 753e 52a1 2140 d281 953f
00000110: ca10 d73f 07df 25c0 4468 fb3e 0d93 0bbf
00000120: ebb4 2bbf d956 12c0 7600 4b3f b1ef 9a3f
00000130: 88ea 16c0 2f0c 81be 596d 3d3f a244 2fbf
00000140: 5674 963f 07cf 99bf b3c9 ee3e f3dc 133f
00000150: 0e02 a63f 803e febf 1af0 38bf ae27 203f
00000160: c2db b5be 338b f1bd 4ee2 d4be ef68 ee3f
00000170: 34af 943f ad67 d33f e240 a23e c56d 52bf
00000180: bcba 9dbf e232 a9bf ae5c a63e 710f f93f
00000190: 8dbd 95bf d3a1 653e 471f 0840 f999 2340
000001a0: ada9 2040 cb43 80bf 46c8 6abe 7250 05c0
000001b0: 52db ccbf 2232 8abf e4ec f0bf 08c6 1bbf
000001c0: 7645 07c0 75eb a2bf f050 1bc0 a70e 61be
000001d0: 3882 6bbe 5396 c83f 1750 6cbe 5046 383e
000001e0: 0e96 8a3f 748a 1540 73d4 13c0 7803 e8bf
000001f0: 6eb2 3940 8362 81bf 8f61 a4bf a786 13c0
00000200: 70a0 e8bf 9e52 b93f 8a1b cbbf 1702 c6bf
00000210: 1e8f 2cbf 3ece 63bf a578 1340 b3e1 d13f
00000220: e36b 2b3f 221a 21bf 448a a03f 0f6b a2bd
00000230: e13a a53f 4231 8e3e 1b26 c63f ad1d 4940
00000240: 2bcf 9bbe 5ef0 78bf e8d8 a2be b8bc 5fbf
00000250: 2186 b13f 300c 853f 7db2 c43f 76e5 663f
00000260: b255 393f 124e 8a3d 22d6 7bbf 1e3d 2bbe
00000270: fa80 bb3f bc7c 0a3f 0935 113f 95e9 3140
00000280: b05c df3f 0ed5 51bf 5de2 0640 e65b 2ec0
00000290: add7 00c0 c45d 40c0 cd68 5b3f 7423 8e3f
000002a0: f41a ea3f 9f9a 9e3e a62b c93f a8f0 0d40
000002b0: 9948 f73e b3df 28bf 1b8b 9cbf f535 44c0
000002c0: 5c56 aebf 9942 8e3f a554 b03f 0843 41bf
000002d0: 5e12 6540 035b 5cbf df72 fe3f 632a ce3f
000002e0: 14f9 eebe a68a 08bf db6f 9dbe 33e3 e63f
000002f0: f7cf 943f 18e7 aa3f d36e 12c0 4f3e 623f
00000300: 6918 b23f 6fcb 753f d756 18c0 ec8c 14bf
00000310: ba1d bbbd add7 d9bf f157 243f 0b0d c93f
00000320: e118 853f 2d4c 97be 3b8d 65be 8b00 0040
00000330: 9305 443f 09cc 343f 9630 41bf 8c63 1340
00000340: 88c9 f3bf d147 ab3f 482f 963f d079 423e
00000350: 3c7e 973f f64e 23c0 7eb7 963f 58be bc3f
00000360: c1f5 d2be 82df 36bf ccba 993f 734a 77bf
00000370: 1eea 1140 f471 993f d8aa 9a3f 3117 b7bf
00000380: 643d 8ebf ab1c b8be 05c3 9b3b 181b 1d3f
00000390: c825 ce3f 69a9 ea3f da57 a13f 6821 e0bf
000003a0: 995b 11c0 7739 9dbf 0a9d c1bf 7839 81bf
000003b0: e67c 923f f980 41bf d886 b23d 0f8f 873e
000003c0: a581 cb3f 1083 053f 9a7a d2bd 4067 1d40
000003d0: 43b3 af3f 8a1c f13f 7095 193f de7c 5e3f
000003e0: f2d3 73be 77d3 703f b888 88be a435 bcbf
000003f0: fcc2 18c0 134e 3ebe 7323 bcbf 9429 273f
1.3235263 -1.3387988 1.2905998 3.1119812 1.6845273 0.60805696 0.1262371 0.6307412
-0.31233183 -0.9796715 -1.4553579 -0.70773196 -0.8193765 -0.0930743 0.04964104 0.21594252
0.57500184 -0.09791636 0.5961239 -1.9013513 -2.5608265 1.25964 1.4175448 1.5414373
-0.47197384 0.16014777 -2.8620765 -1.0451921 -0.02193257 1.1632084 1.2644991 -1.1397679
-0.58443636 -0.37308854 1.0117658 -0.72098136 0.36525837 -0.033410236 0.03381467 1.7766554
1.6889383 -0.8164194 -0.67371523 0.0062936894 1.185788 0.1198757 0.71816075 -0.30300987
0.5682139 -0.84664285 -0.5955196 0.31025776 -0.8766052 1.482168 -0.39690405 -0.43692267
-0.029593924 -0.035554778 -0.31678426 0.047103643 0.03271757 0.9229598 0.69951844 0.8317923
1.275885 0.23971975 2.5254712 1.1680243 1.6801999 -2.5917375 0.49102986 -0.54521257
-0.67072934 -2.2865508 0.7929758 1.2104398 -2.3580647 -0.25204608 0.73994976 -0.684641
1.1754253 -1.2016305 0.4663826 0.57759017 1.2969377 -1.9862823 -0.72241366 0.62560546
-0.35519224 -0.11794128 -0.41578907 1.8625773 1.1615968 1.6516014 0.31690127 -0.82198745
-1.2322612 -1.3218653 0.32492584 1.9457837 -1.1698471 0.22425012 2.126909 2.5562727
2.5103562 -1.0020689 -0.22927961 -2.083035 -1.6004431 -1.0796549 -1.8822293 -0.60849047
-2.1136146 -1.2728106 -2.426815 -0.21978246 -0.22998893 1.5670875 -0.23077427 0.17995572
1.0827043 2.3365755 -2.3098419 -1.8126059 2.9015155 -1.0108188 -1.2842273 -2.3050935
-1.8173962 1.4478338 -1.5867779 -1.5469388 -0.6740588 -0.88986576 2.3042386 1.6397003
0.669615 -0.629305 1.2542195 -0.07930576 1.2908593 0.27771956 1.5480379 3.1424363
-0.30431494 -0.9724177 -0.3180611 -0.87397337 1.3869058 1.0394344 1.536697 0.9019388
0.72396386 0.06753172 -0.98373616 -0.16722533 1.4648736 0.5409658 0.5672155 2.7798817
1.7450161 -0.8196572 2.107566 -2.724359 -2.0131638 -3.005723 0.8570679 1.110457
1.8289475 0.30977342 1.5716445 2.2178135 0.48297575 -0.6596634 -1.2229952 -3.0657933
-1.3620105 1.1114074 1.3775831 -0.75492907 3.579246 -0.8607637 1.9878806 1.6106685
-0.46674407 -0.5333656 -0.307494 1.8038086 1.1625966 1.3351774 -2.2880142 0.88376325
1.3913699 0.9601354 -2.3803003 -0.5802753 -0.09136529 -1.7018944 0.6419669 1.5707105
1.0398217 -0.29550305 -0.22417156 2.0000331 0.76571006 0.7062383 -0.7546476 2.3029509
-1.9045877 1.3381292 1.1733179 0.1899178 1.1835399 -2.5516944 1.1774747 1.4745588
-0.4120312 -0.71434796 1.2010131 -0.96597975 2.2799144 1.1987901 1.2083387 -1.4303952
-1.1112485 -0.35959372 0.0047534727 0.61369467 1.610528 1.833295 1.2604935 -1.7510195
-2.2712157 -1.2283162 -1.512605 -1.0095663 1.1444366 -0.7558742 0.08717126 0.26476333
1.5898939 0.5215311 -0.10277291 2.4594269 1.3726581 1.8836834 0.5999365 0.8690928
-0.2381132 0.9407267 -0.26666808 -1.470387 -2.386901 -0.1858447 -1.4698318 0.6529782
